…
        

suffix:        gputest
# gpu          1
classes:       9
# each class   3000
train_val_test:[0.8, 0.1, 0.1]
epochs:        10
batchsize:     512
lr:            0.001
use_bn:        True
Phi_sizes:     (64, 64, 50)
F_sizes:       (64, 64, 40)
        
TensorBoard log path is /hpcfs/cepc/higgsgpu/wuzuofei/My_Net/ParticleFlowNetwork/output/log_tensorboard/log_gputest
----------------------------------------------------------------
        Layer (type)               Output Shape         Param #
================================================================
       BatchNorm1d-1               [-1, 6, 200]              12
            Conv1d-2              [-1, 64, 200]             448
       BatchNorm1d-3              [-1, 64, 200]             128
              ReLU-4              [-1, 64, 200]               0
            Conv1d-5              [-1, 64, 200]           4,160
       BatchNorm1d-6              [-1, 64, 200]             128
              ReLU-7              [-1, 64, 200]               0
            Conv1d-8              [-1, 50, 200]           3,250
       BatchNorm1d-9              [-1, 50, 200]             100
             ReLU-10              [-1, 50, 200]               0
           Linear-11                   [-1, 64]           3,264
             ReLU-12                   [-1, 64]               0
           Linear-13                   [-1, 64]           4,160
             ReLU-14                   [-1, 64]               0
           Linear-15                   [-1, 40]           2,600
             ReLU-16                   [-1, 40]               0
           Linear-17                    [-1, 9]             369
================================================================
Total params: 18,619
Trainable params: 18,619
Non-trainable params: 0
----------------------------------------------------------------
Input size (MB): 0.00
Forward/backward pass size (MB): 0.83
Params size (MB): 0.07
Estimated Total Size (MB): 0.90
----------------------------------------------------------------
None
  0%|        
…
